data.pth (torch, 9215 bytes, 6 tensors)

l1.weight f4 [8, 132]
000000 d5 fe 2b be 65 00 b4 bd 3e c3 37 3f 30 00 94 3b
       -0.1679643 -0.08789138 0.7178229 0.004516624
000010 c3 34 ce 3e 4c 0b ca be 1a 88 c6 be c6 e4 02 3f
       0.4027463 -0.39461744 -0.38775712 0.5113033
000020 a4 71 3c 3e 67 13 f4 3d 76 44 d1 be 76 50 ed be
       0.18402725 0.11917763 -0.40872544 -0.4635045
000030 70 ec 0a be 77 20 12 3f c7 70 0a 3f 2b 64 35 3f
       -0.13566756 0.5708079 0.54078335 0.7085597
000040 b0 87 4e be 56 88 5e 3b 0e e1 d6 3e f3 ff f1 bc
       -0.20168948 0.0033955774 0.41968578 -0.029540991
000050 63 35 11 bc b6 91 cf 3e 80 a4 8c 3e ca 7c e7 3e
       -0.008862826 0.40540856 0.27469254 0.45212394
000060 fc f1 01 bf e4 f2 f5 be 19 a2 ec 3e 71 94 e1 3e
       -0.50759864 -0.48036873 0.4621742 0.44058564
000070 a4 1e 69 3e e8 a8 a5 3e b5 34 21 bf 1a 76 12 bd
       0.22765595 0.32355428 -0.6297105 -0.03575716
000080 f7 fc 06 be 42 3e 4c 3e 6a 5e 8f bd 0f 32 01 be
       -0.13182436 0.19945624 -0.0700043 -0.12616752
000090 51 d0 e6 be fb cb ea 3e ea 64 fe be 3c 12 d2 be
       -0.45080808 0.4585875 -0.49686366 -0.41029537
0000a0 a2 eb 3e bf 17 15 3d be db e1 a6 bd a2 29 95 3e
       -0.745783 -0.18465076 -0.08148547 0.29133326
0000b0 ae 20 ee be 6a f8 3e be 66 ee bb 3e 87 17 8c be
       -0.46509308 -0.1864945 0.3670532 -0.273617
0000c0 d7 3e a8 3e ea 59 4a be 90 8a 06 bf 65 fb 6a be
       0.32860443 -0.19760862 -0.5255518 -0.22947462
0000d0 35 a5 fc be d7 88 bc be 27 bf f3 bc e5 9d bc be
       -0.49344793 -0.3682315 -0.029754234 -0.36839214
0000e0 1f f5 e7 bd e8 35 f2 3c be 05 67 3d 55 ba 6a 3e
       -0.1132605 0.02956672 0.05640196 0.22922643
0000f0 ff c7 81 3d 56 1a 97 3b f1 4e 33 be 87 79 4d 3f
       0.06336974 0.004611294 -0.17510583 0.8026356
000100 bc 96 b5 be 3b 75 a2 3e 1d 64 87 3e 5e b1 3b be
       -0.35466564 0.31730065 0.26443568 -0.18329379
000110 e8 bc 9e be a5 20 5f 3f 0b 1d 04 3f f5 45 03 bf
       -0.310035 0.87159187 0.51606816 -0.5127862
000120 41 e3 d8 bc d5 01 3b 3d c7 23 07 3f 5a 58 eb 3d
       -0.02647555 0.045656044 0.52788967 0.11491461
000130 2a 8b 08 3f cf 30 8d 3a b0 68 bb 3d f0 8c 38 be
       0.5333735 0.0010771992 0.09150827 -0.18022513
000140 66 e4 2b 3f 8e ec 91 3e 6f dd 08 bf 23 89 06 3f
       0.67145383 0.2850079 -0.5346288 0.52553004
000150 c6 20 49 3d 71 1a 58 be 1b ab 49 3f a3 d8 d2 3e
       0.04910352 -0.21103837 0.7877671 0.41180906
000160 c5 d2 07 3f 18 62 df be 12 05 05 3f 77 e2 2d 3e
       0.53055984 -0.43629527 0.5196086 0.1698092
000170 d9 c3 11 3f 59 ef 98 3f ad 82 f0 be fd 85 98 3d
       0.56939465 1.1948043 -0.46974698 0.07447431
000180 ac bc c3 be 45 64 02 3f 28 07 86 bc bc 82 2c be
       -0.38229883 0.5093425 -0.016360834 -0.16846746
000190 0d 65 0a 3e 4c 50 01 3f 84 fd cb bd aa 11 89 3e
       0.1351511 0.5051315 -0.09960464 0.2677129
0001a0 ce aa 50 bc e8 16 9d be df 0b 0a bf d7 5b b3 3e
       -0.0127360355 -0.3068154 -0.53924364 0.35031006
0001b0 10 7d 3e be 67 02 e1 be 9c 84 ab 3d 1c 4a 9d be
       -0.18602395 -0.43947145 0.083749026 -0.30720603
0001c0 f5 cc 2f be 08 e4 18 bf e9 f2 59 3c bb 8b 25 3f
       -0.17168029 -0.5972295 0.013302543 0.64666337
0001d0 e8 f5 96 3e db 41 1e bd 8e 19 95 3c 59 1a 1a 3e
       0.29484487 -0.038637023 0.018200662 0.15049113
0001e0 42 28 e5 3e 0c 2d ba 3e 02 a8 d3 3c 8c 80 c2 3e
       0.44757277 0.36362493 0.025836948 0.37988698
0001f0 c2 86 ae 3e 17 4e 08 3e 84 27 3e 3d bb d4 bd be
       0.34087187 0.13311039 0.046424404 -0.37076363
000200 36 4c 07 bf c5 ea 77 3e c1 39 9e be c4 9d f3 3d
       -0.52850664 0.24210651 -0.30903438 0.11895326
000210 85 86 ba bd bd 82 fb bd 04 b3 06 be 6b ae 24 3e
       -0.09107689 -0.12280796 -0.13154227 0.1608216
000220 d2 47 48 3e 43 85 ad 3e 0d 90 47 3e 65 d8 f1 be
       0.19558647 0.33890733 0.19488545 -0.47235408
000230 61 82 20 3e d2 e7 8e 3e 5d 40 d6 3e 68 08 0e 3f
       0.15674736 0.2791124 0.4184598 0.55481577
000240 c7 98 e0 bd 4c ed 9f be fe 54 e3 3e 79 e9 6b 3c
       -0.1096664 -0.3123573 0.4440078 0.014398926
000250 f7 52 91 bd 82 23 30 bf 36 04 55 be a1 e6 3c bc
       -0.070959024 -0.6880418 -0.20802388 -0.011529596
000260 f1 78 e4 bd dc 6f c5 3e 7b 21 a6 be 4b ae 86 be
       -0.1115588 0.38561904 -0.3244742 -0.2630485
000270 57 28 24 3f c8 b6 21 3f 16 b9 f9 be 02 8b a1 bd
       0.64124054 0.6316953 -0.48774022 -0.07887842
000280 f9 12 6c 3e 59 de ef 3e b5 61 f4 3e 3b 74 9f be
       0.23054112 0.46849325 0.47730795 -0.31143364
000290 00 09 46 be 5c 8a 92 3e d5 1a 9a 3e 67 71 b2 3d
       -0.1933937 0.28621185 0.30098596 0.08713036
0002a0 cf 6b 05 3f eb ad 81 be cc 13 26 3f c7 55 22 3f
       0.5211763 -0.25328 0.6487396 0.63412136
0002b0 6f 2f a8 bd 5f 5d 84 3d 3f 29 36 be bd 31 a5 3e
       -0.08212172 0.064631216 -0.17789172 0.3226451
0002c0 d8 08 7d 3c 60 9d 18 3f db ef d3 3d a2 6d eb bd
       0.015444003 0.59615135 0.10348483 -0.1149552
0002d0 58 9b b4 be 5e 58 fd 3d db 9b ba 3e 8f 58 7c bd
       -0.35274768 0.1237037 0.36447033 -0.061607894
0002e0 a2 60 e5 3e 2e b6 f8 3e d5 64 89 3e 50 ec eb 3e
       0.44800287 0.48576492 0.2683474 0.4607873
0002f0 69 0a 56 3f f1 d6 22 bf 5f d9 20 be ac 88 d1 3e
       0.83609635 -0.63609225 -0.1570792 0.40924585
000300 85 38 17 3f 5b 58 3c be ab c1 3b bd e0 e3 56 3f
       0.59070617 -0.1839308 -0.045838993 0.8394146
000310 c4 8c 91 3f aa 04 b0 3e 7b f3 86 be 43 49 4c 3d
       1.1371083 0.34378558 -0.26357636 0.049874555
000320 03 92 59 3e 78 f4 1f be fa c2 a6 3e 91 2a 0e bf
       0.21247105 -0.15620601 0.3257063 -0.555337
000330 fc e5 b0 3c 88 80 07 3e c2 1c f9 bc 57 d0 94 be
       0.02159404 0.13232625 -0.03040922 -0.290652
000340 10 d6 09 3f 11 6a f3 bd 5e a0 1f 3e a4 75 c5 be
       0.5384226 -0.11885465 0.15588519 -0.38566315
000350 f8 ee c5 be 57 61 c6 be da 9f 25 3e e6 47 bd bc
       -0.3865888 -0.3874614 0.1617426 -0.023105573
000360 af 40 23 3f 6f a4 d0 be b1 4e 16 3d 8d 78 06 bf
       0.63770574 -0.40750453 0.03669614 -0.52527696
000370 91 d0 9e be 26 74 dc 3e 48 db d7 be 92 f4 2f be
       -0.310185 0.43057364 -0.42159486 -0.1718314
000380 aa 6a 94 be 69 3b 06 bf b3 63 79 3e 8c bf 5e 3e
       -0.28987628 -0.524344 0.24354438 0.21752757
000390 e1 e8 52 3f 9b e4 6b be 88 29 b2 bd 15 79 4f bd
       0.82386595 -0.23036425 -0.08699328 -0.050652582
0003a0 f6 3a 2d 3e 96 e6 e1 be 45 7d c2 bd ae ac e2 3e
       0.16917023 -0.44121236 -0.094965495 0.4427237
0003b0 b3 eb 38 3f d8 ef b9 be d0 94 49 bc b0 6a 89 be
       0.7223465 -0.363158 -0.012303546 -0.2683921
0003c0 71 3a 1b bd db 14 22 3f 40 db 8a 3d 71 f1 93 3e
       -0.03789753 0.6331307 0.067801 0.28895143
0003d0 13 44 ad be a7 57 d0 3e f9 97 dd be 36 13 d9 be
       -0.33841 0.40691873 -0.43280008 -0.4239747
0003e0 3a f6 4b be 62 86 2f 3e 2b 14 11 3f ae d1 05 3e
       -0.19918147 0.17141107 0.566714 0.13068268
0003f0 b5 aa 04 bf d1 c3 68 3e 33 2b 81 be 27 3e a3 be
       -0.5182298 0.22730948 -0.2522827 -0.31883356

l1.bias f4 [8]
000000 9b f3 79 3f 0f 2c 32 3f 62 30 94 3f 98 c0 8b 3f
       0.9763734 0.6959848 1.1577265 1.091815
000010 db b3 f1 3e 02 06 4f 3f 31 d4 69 3f a1 e4 08 3f
       0.4720753 0.8086854 0.91339403 0.5347386

l2.weight f4 [8, 8]
000000 9a 59 82 bf da f1 7d 3f d1 ba a1 bf 00 b7 84 3f
       -1.0183594 0.9919716 -1.2635137 1.0368347
000010 5f 78 cf 3f b1 78 3f 3f d9 f2 14 3f c0 bb 25 bf
       1.6208609 0.74793535 0.58183056 -0.6473961
000020 3f dd b9 3f e5 d7 e2 3e 11 11 ad be 17 a2 e6 3f
       1.4520644 0.4430534 -0.33802083 1.8018216
000030 b6 4f e2 be 7b e0 1f bf ba 9a a6 3f 95 db a8 bf
       -0.4420144 -0.62451905 1.3015969 -1.3192011
000040 28 32 cc 3d 59 6c d0 3f 29 aa a7 3f 4e 65 b0 3f
       0.09970504 1.6283065 1.3098804 1.3780916
000050 07 44 f5 3d b7 46 9a 3e 41 86 12 bf 95 35 8b 3f
       0.11975866 0.30132076 -0.57236105 1.0875727
000060 be 0f fa bd 98 81 7d 3f e0 2b e0 3f c4 e4 2b 3f
       -0.12210034 0.9902587 1.751339 0.67145944
000070 69 a0 d0 be e8 78 c4 3f 7b d8 df be 7b 75 10 bf
       -0.40747383 1.5349398 -0.4371985 -0.5642926
000080 8a 57 b0 3f 30 ff a7 bf 2a ff fd 3f 55 b7 ee be
       1.3776715 -1.3124752 1.9843495 -0.46624246
000090 cf c9 36 3f e7 4d f3 3f 30 5a 7d 3f 44 dd 4c bf
       0.71401685 1.9008149 0.9896574 -0.80025125
0000a0 e5 a3 f1 be 0e 04 96 3f 5f 0c b6 3e 82 c9 e5 be
       -0.47195354 1.1719987 0.35556313 -0.448803
0000b0 78 bc 6d 3f 74 c0 26 bf fd 71 48 3f 28 fd ac 3f
       0.92865705 -0.6513741 0.7829893 1.3514757
0000c0 5b 1d a0 3f d0 51 d5 be 80 c3 a0 bf 8c 33 56 3f
       1.2508959 -0.4166398 -1.2559662 0.83672404
0000d0 4d 9b ef 3e ff 46 43 be db 32 df 3e 6c fd f3 3f
       0.46798173 -0.19070052 0.43593487 1.9061713
0000e0 78 ca a0 3f 21 60 9d 3e 19 cd 6a bc 1f 1a b9 3e
       1.2561789 0.30737403 -0.014331126 0.3615274
0000f0 05 b4 7c bf bd 32 37 bf 5d 57 c4 3f e4 66 43 3f
       -0.9871219 -0.71561795 1.5339161 0.76328874

l2.bias f4 [8]
000000 9c 50 2f 3f e7 78 84 3f 78 64 9a be 51 3d b8 3e
       0.68482375 1.0349396 -0.30154777 0.3598428
000010 bf f2 9d 3e 7a e8 92 be b7 71 45 be f8 ac c7 3d
       0.30849263 -0.2869299 -0.1928166 0.09749788

l3.weight f4 [17, 8]
000000 8e 87 85 3d 9e e9 38 3f 68 41 51 3e 11 10 81 3e
       0.06519996 0.7223147 0.20435107 0.2520757
000010 2d 7f af bf 0b dc 2a c0 eb 4c 51 bd 75 e8 90 bd
       -1.3710686 -2.6696804 -0.051098745 -0.07075588
000020 33 a0 3b 3f 5f eb a7 bf 66 87 c1 3d b0 72 1a bf
       0.7329132 -1.3118705 0.09449653 -0.6033125
000030 3e dd fb bf 0a aa f5 3e 7e 76 7b 3e 7e 41 75 bf
       -1.9676893 0.47981292 0.2455692 -0.9580306
000040 e5 45 9c 3d eb b2 3b 3e 75 2c b6 3d 98 7e 34 be
       0.07630519 0.1832997 0.08895198 -0.17626417
000050 cf 3f 12 c0 1e 10 8c 3e 4c 29 b2 be 99 33 23 3e
       -2.2851446 0.27356046 -0.34797132 0.15937652
000060 34 23 af 3e e2 dd 59 bf f5 b4 63 3e 59 09 d1 bd
       0.34206545 -0.8510419 0.22236998 -0.10206861
000070 49 82 31 bf 47 5e 2b 3f 8f b6 8c bf 11 85 30 be
       -0.69339424 0.6694073 -1.0993212 -0.17238261
000080 ff b6 07 be 3c aa 9f 3e f2 89 cb bf c1 39 dd be
       -0.13253401 0.31184566 -1.5901473 -0.43208125
000090 54 cf 2b bf 7c f3 c7 3e d8 dc 01 bf e1 fe 2e 3f
       -0.6711323 0.3905295 -0.50727606 0.68357664
0000a0 60 7c 92 3e ae 39 0e c0 a4 42 8e be e4 14 62 3e
       0.28610516 -2.2222705 -0.27785218 0.22078282
0000b0 7f 76 32 3f f3 e8 6b be 78 cf f5 bf e5 55 e5 bf
       0.6971206 -0.23038082 -1.920394 -1.7916838
0000c0 4d c5 70 bf 93 97 99 3e 94 94 2c bd 83 6d 4d bf
       -0.9405106 0.29998454 -0.042133883 -0.80245227
0000d0 6c 90 73 bf b7 c6 87 bf 5c cb f4 3e 51 b0 2e 3f
       -0.95142245 -1.0607518 0.478114 0.6823779
0000e0 68 f8 14 be 13 71 bc be e7 f2 ca be 21 f3 05 bf
       -0.14547884 -0.3680502 -0.39638445 -0.5232411
0000f0 c0 e7 1e 3e 53 70 03 bf 2e 6f d8 3e c5 6c b6 be
       0.15518093 -0.5134327 0.42272323 -0.3562986
000100 ca f3 f2 3e 42 21 11 c0 0f 5f 87 be 16 4f 70 bf
       0.4745162 -2.267655 -0.2643971 -0.93870676
000110 e9 b3 83 3e a9 ec 6b be 74 a2 0c 3f ea 95 e3 bf
       0.25723198 -0.23039497 0.54935384 -1.7780125
000120 be dc c7 bf ab 8a f1 3e ba 72 87 bf fe 7b 81 bf
       -1.561424 0.47176108 -1.0581887 -1.0115964
000130 b2 8e 00 3f ee c7 92 bf 61 f8 7e 3d 4a e5 f8 3e
       0.50217736 -1.1467264 0.06224859 0.48612434
000140 18 2c db bf 83 c5 c8 be 95 90 0d 3f 49 08 aa 3e
       -1.7122831 -0.3921319 0.5529874 0.33209446
000150 5b f6 fe be 16 bb a2 3e 45 be 5e 3d 75 2e d1 3c
       -0.4979733 0.3178336 0.054380674 0.025534848
000160 52 b9 05 bd c4 54 bf bf 36 e2 68 3e 66 5f b0 be
       -0.03264744 -1.4947743 0.22742543 -0.34447783
000170 14 b8 cf 3e 65 2e bb 3e 1a f0 42 bf bc b2 91 bf
       0.40570128 0.36558834 -0.76147616 -1.138267
000180 59 2b 3b 3f e4 fa e3 be 4d 86 cd be c4 8d 58 3e
       0.7311302 -0.44527352 -0.40141526 0.2114783
000190 5d 0f b2 3e 97 ae 70 bf 19 92 3c bf 23 52 15 c0
       0.34777346 -0.940164 -0.7366043 -2.3331382
0001a0 cd 22 e7 bf a9 cd 86 3c 2c d4 ca be c3 ca 22 3f
       -1.8057495 0.016455488 -0.39615 0.6359064
0001b0 5c 1d 1e 3f c0 f9 f3 bf 87 0f a9 bf f8 ab ad 3e
       0.6176355 -1.9060593 -1.3207864 0.33920264
0001c0 f6 d7 c5 3d 8c b1 56 bd c4 d8 63 3f 53 3b 62 3f
       0.09660332 -0.052415416 0.89002633 0.8837177
0001d0 ad 63 05 bf 23 22 98 bf 13 fb 03 c0 5b 50 34 bf
       -0.5210522 -1.1885418 -2.0621994 -0.7043511
0001e0 e2 5b 65 bf b9 36 08 c0 d1 59 b6 3e 91 20 ec 3e
       -0.8959333 -2.12834 0.356154 0.46118596
0001f0 47 f3 4b 3f 7b a5 4b bf 0e d3 a1 bf 5f ca 7d bf
       0.79668087 -0.7954938 -1.2642534 -0.9913692
000200 2a f3 4b 3f 6b 6a d0 3e ee 66 a5 bf dd 7c 9d bf
       0.79667914 0.4070619 -1.2922037 -1.230373
000210 c9 70 93 be 75 fd e4 3c 5e fd ea be 2d f0 52 bf
       -0.28796986 0.027952889 -0.4589643 -0.8239773

l3.bias f4 [17]
000000 df bc bb 3e dd bb 6b 3e 16 fd e0 bc ac 4b 89 be
       0.36667535 0.23020883 -0.02746443 -0.26815546
000010 28 a4 9e be 65 59 cc be 25 84 9c be 83 94 ad be
       -0.30984616 -0.39911953 -0.30569568 -0.33902368
000020 9e 31 8a be 4f 0b 4d 3e 24 c8 9b be 0d 3b aa be
       -0.2699098 0.20023845 -0.30426133 -0.33248177
000030 b1 8c 95 3e 3f 7b ba 3e 4c 0e 8a bd 85 e8 2c 3e
       0.29208902 0.36422154 -0.06741008 0.16885574
000040 75 bf 1b 3f
       0.60839015
