dutchData.pth (torch, 9959 bytes, 6 tensors)

l1.weight f4 [8, 141]
0	0xbd5875f7	-0.052846875
1	0xbc973fe8	-0.01846309
2	0x3f2ccb54	0.67497754
3	0x3c800886	0.015629064
4	0x3da6e002	0.08148195
5	0xbe2603b5	-0.16212352
6	0x3eee66e9	0.4656289
7	0xbfba1d5e	-1.4540212
8	0xbd4f7465	-0.05064811
9	0xbd5badec	-0.05363266
10	0xbdc1328d	-0.0943347
11	0xbeafc5c6	-0.34330577
12	0x3ea08274	0.31349528
13	0xbca00b7c	-0.019536726
14	0xbecb0622	-0.39653116
15	0x3ea18088	0.31543374
16	0x3f9b6f24	1.2143292
17	0x3ecb6040	0.3972187
18	0x3f6db9b3	0.9286148
19	0x3e34599a	0.17612305
20	0x3f761af0	0.96134853
21	0x3bf996b6	0.007616843
22	0x3b5d6819	0.003378397
23	0x3f31aecf	0.6940736
24	0xbee0320c	-0.43788183
25	0xbf0b38fd	-0.5438383
26	0xbd40c956	-0.04706701
27	0xbf099e5c	-0.5375726
28	0x3e0fc8ca	0.14041439
29	0xbd6f6835	-0.05844899
30	0xbee00dba	-0.43760473
31	0x3e003845	0.12521465
32	0x3e1de848	0.1542064
33	0xbee32ab5	-0.4436852
34	0x3f08f1ae	0.53493774
35	0xbea6b6aa	-0.32561237
36	0xbf0bb456	-0.54572046
37	0x3d400ca0	0.04688704
38	0x3f2c6970	0.67348385
39	0x3ec5d2d6	0.38637418
40	0xbf4af725	-0.7928336
41	0xbde6d5cc	-0.11271247
42	0x3edbd531	0.4293609
43	0x3f091be8	0.53558207
44	0xbb4fb0b7	-0.0031691024
45	0x3e74c955	0.23904927
46	0x3e33dbe7	0.17564355
47	0xbb0a8860	-0.0021138415
48	0x3f0268ae	0.5094098
49	0x3e2431bd	0.16034599
50	0x3daf0aba	0.08546968
51	0x3f2ccf2d	0.67503625
52	0x3d234c84	0.039867893
53	0x3e4ba211	0.19886042
54	0x3f35c9c2	0.71010983
55	0xbc9e9ecc	-0.01936283
56	0xbcded7e6	-0.027202558
57	0x3f0034de	0.5008067
58	0x3e1828df	0.14859341
59	0x3b7ff957	0.003905853
60	0x3cb42b87	0.021993412
61	0x3e8f0ced	0.2793955
62	0xbed16403	-0.40896615
63	0x3f2da57e	0.67830646
64	0x3c12a5a5	0.008950626
65	0xbccd781e	-0.02508169
66	0x3f2a8eef	0.6662435
67	0xbf00e834	-0.50354314
68	0xbf0b95e2	-0.5452558
69	0xbf5b6a13	-0.8570873
70	0x3f859197	1.0435055
71	0xbe3eff30	-0.18652034
72	0x3eedd103	0.46448526
73	0x3ef0d509	0.47037533
74	0x3c11f936	0.008909514
75	0xbd69f09a	-0.05711422
76	0xbf60f6af	-0.8787641
77	0xbe1d66ac	-0.15371197
78	0xbee3464a	-0.44389564
79	0x3df898a7	0.12138491
80	0x3ccbf178	0.024895415
81	0x3ecf5b01	0.40499118
82	0x3e1f13bc	0.15534872
83	0x3ec35678	0.38151908
84	0x3b5b8680	0.0033496916
85	0x3e5f3c95	0.21800454
86	0xbeb457cf	-0.35223243
87	0x3e2c201e	0.16809127
88	0xbea3f078	-0.320194
89	0x3e0ef21d	0.13959546
90	0x3ece8833	0.40338287
91	0x3f670ca6	0.90253675
92	0x3fa63e92	1.2987845
93	0x3f1ba73f	0.6080207
94	0x3e2e7eb1	0.17040516
95	0xbf5f65ee	-0.8726491
96	0xbecbad01	-0.3978043
97	0xbd8b3387	-0.067969374
98	0xbe0c2235	-0.13684924
99	0xbe918a89	-0.28426006
100	0xbc4ea751	-0.0126131335
101	0x3e8873b1	0.26650766
102	0x3e582078	0.21106136
103	0xbea957a6	-0.33074683
104	0xbf28eeee	-0.6598958
105	0xbe024500	-0.12721634
106	0xbe75a592	-0.23988941
107	0x3e6ba202	0.2301102
108	0x3e14655d	0.14491792
109	0xbec90261	-0.39259627
110	0xbe1d96c2	-0.15389541
111	0x3df7a282	0.12091543
112	0x3e0a7118	0.13519704
113	0xbe93e674	-0.2888676
114	0xbe18b00c	-0.14910907
115	0xbcc80050	-0.024414212
116	0xbf0bcc2d	-0.5460842
117	0xbd7b2830	-0.061317623
118	0xbef47ec8	-0.47752976
119	0xbedb9f6b	-0.42895064
120	0xbe9822db	-0.29714093
121	0x3e4bf41d	0.1991734
122	0x3d0a5292	0.03377015
123	0xbda5e264	-0.08099821
124	0xbdff073b	-0.12452551
125	0xbe63f6c9	-0.2226211
126	0x3de10952	0.10988106
127	0xbf01f2a7	-0.50760883
128	0xbe6c4af2	-0.23075464
129	0x3f8f5c57	1.1200055
130	0xbc06d382	-0.008229138
131	0x3dfdd697	0.123944454
132	0xbf4b64ef	-0.7945089
133	0x3f1e7f44	0.6191294
134	0x3f183942	0.5946237
135	0x3e227518	0.1586498
136	0xbbd3c920	-0.006463185
137	0xbe2ffe42	-0.17186835
138	0x3eeda7d7	0.46417114
139	0x3e1cefe7	0.1532589
140	0xbe88ecf7	-0.2674329
141	0x3edd388a	0.43207198
142	0x3ecd9baf	0.4015784
143	0x3f2605f4	0.64852834
144	0xbc9970f1	-0.018730612
145	0x3ef25de1	0.4733725
146	0x3df03752	0.117293015
147	0x3e1d5217	0.15363346
148	0x3e8dbe1e	0.2768411
149	0x3eada3f5	0.33914152
150	0x3ddd248c	0.107979864
151	0x3f26a4f3	0.6509544
152	0x3f06fafe	0.52726734
153	0xbd9a9172	-0.07547273
154	0x3e328852	0.17434815
155	0x3f88ee41	1.0697709
156	0x3e501a14	0.20322448
157	0xbf7f43d7	-0.9971289
158	0xbeec0980	-0.46100998
159	0x3f5666e7	0.83750767
160	0x3ecd897b	0.40143952
161	0xbf6d37ea	-0.92663443
162	0x3eb7b07a	0.35876828
163	0x3f3107cf	0.6915254
164	0xbe909567	-0.28238985
165	0xbeaca712	-0.33721215
166	0x3f469613	0.77572745
167	0x3dfe8d31	0.12429274
168	0x3ed3e740	0.41387367
169	0x3f3c3fd5	0.735349
170	0x3e764fb8	0.24053848
171	0x3e9158cc	0.2838806
172	0x3d2935f4	0.04131122
173	0x3ed4d8c5	0.41571632
174	0xbeac560d	-0.33659402
175	0xbe7ec510	-0.24879861
176	0x3f12a905	0.57289153
177	0x3eb9fb5e	0.3632459
178	0xbd82dc94	-0.06389728
179	0xbf053e8f	-0.5204858
180	0xbe7ea615	-0.24868043
181	0xbf3e4b55	-0.743337
182	0x3cf76cc6	0.030203234
183	0x3e0058c1	0.12533857
184	0x3eb7665b	0.3582028
185	0x3db84073	0.08996668
186	0xbe3afa65	-0.1825958
187	0x3e6fce5d	0.23418565
188	0x3e46f679	0.1942996
189	0xbdd7f037	-0.10543864
190	0x3f1a0598	0.60164785
191	0xbeb0ec14	-0.34555113
192	0xbe94c512	-0.29056603
193	0x3e09fd20	0.13475466
194	0x3e7c30d7	0.24628006
195	0xbe8c91b7	-0.27454922
196	0x3e117d05	0.14207847
197	0x3de8d287	0.1136828
198	0xbdaa7b26	-0.0832427
199	0xbdaa09b9	-0.08302636
200	0xbf3ad27b	-0.7297742
201	0x3e7dea04	0.24796301
202	0xbb0acd8c	-0.0021179644
203	0x3f71bc73	0.94428176
204	0xbe912df6	-0.28355378
205	0x3e7d4787	0.24734317
206	0x3e2ed987	0.17075168
207	0x3e8bcb7d	0.27303687
208	0x3ee41b2f	0.4455199
209	0x3ec10948	0.37702394
210	0xbd1e8e2b	-0.0387098
211	0x3f0691bd	0.5256613
212	0x3f201f84	0.6254809
213	0xbdb9a1b9	-0.09064049
214	0xbdd48b22	-0.103781
215	0xbe1a0fa2	-0.15045026
216	0x3e1494ab	0.14509837
217	0x3d9c738a	0.07639225
218	0xbdc2bbf3	-0.09508505
219	0x3eb63da6	0.3559391
220	0x3e4beaad	0.1991374
221	0x3e1485c0	0.14504147
222	0xbeb62c15	-0.35580507
223	0xbeda3194	-0.4261595
224	0xbeff5457	-0.49869034
225	0x3e05b890	0.13058686
226	0x3ed8cba5	0.42342868
227	0x3dc0d3cb	0.09415396
228	0xbe81574c	-0.25261915
229	0x3e0b8aed	0.13627215
230	0x3e290383	0.16505246
231	0xbd18d42b	-0.037311714
232	0x3f50a65f	0.8150386
233	0x3d5a070d	0.05322938
234	0x3e36f4e9	0.17866863
235	0x3e9a1acf	0.30098578
236	0xbf238552	-0.63875306
237	0x3e4b925c	0.1988005
238	0x3f2428d6	0.6412481
239	0x3ea7fc33	0.328096
240	0x3e463aeb	0.19358413
241	0x3ec3a6cb	0.3821319
242	0x3e1b24e8	0.15150797
243	0xbe7b6528	-0.24550307
244	0x3f233196	0.6374754
245	0x3f418c5b	0.7560479
246	0xbdc2f263	-0.09518888
247	0x3e389851	0.18026854
248	0xbe9b80ee	-0.30371803
249	0x3e8c7a1c	0.27436912
250	0x3e8344c2	0.25638396
251	0x3f7f2fe8	0.99682474
252	0xbe8a37f6	-0.2699582
253	0xbe266ea6	-0.16253147
254	0xbe778db5	-0.2417515
255	0x3eba1dd6	0.36350888

l1.bias f4 [8]
0	0x3f30db56	0.6908468
1	0x3eabc88c	0.33551443
2	0x3f6ea891	0.9322596
3	0x3f866da7	1.0502213
4	0x3e9c100a	0.30480987
5	0x3f04726a	0.5173708
6	0x3f85c79a	1.0451539
7	0x3ee84569	0.45365456

l2.weight f4 [8, 8]
0	0xbea0f7f3	-0.3143917
1	0x3af43552	0.0018631613
2	0xbe654cb8	-0.22392547
3	0x3dbe97df	0.09306311
4	0x3e1bcf35	0.15215762
5	0xbcf0de0d	-0.029402757
6	0xbdd86f73	-0.10568132
7	0x3e4c7ff8	0.19970691
8	0x3fb9e5e3	1.4523281
9	0xbf8171ae	-1.0112817
10	0x3ec9d5ca	0.3942092
11	0x3f9564a3	1.1671337
12	0xbf326d0d	-0.6969765
13	0x3fdb57d5	1.7136179
14	0x3effcaec	0.49959505
15	0x3fe5bfc8	1.7949152
16	0xbf66879c	-0.90050673
17	0x3f5c1117	0.8596358
18	0x3f8b47fe	1.0881345
19	0x3f43a891	0.76429087
20	0x3fbbc737	1.467017
21	0x3e9a329e	0.30116743
22	0xbeb0175f	-0.3439283
23	0x3fa5cccb	1.2953123
24	0x3fc42d6e	1.5326364
25	0x3e831fb4	0.25610125
26	0x3fea0e6d	1.8285652
27	0xbf3fd6cf	-0.74937147
28	0xbf579ab5	-0.8422044
29	0xbf90e63f	-1.1320266
30	0x3f282607	0.65683025
31	0xbf6ce261	-0.92532927
32	0xbf0f8a6f	-0.5607061
33	0x3f87c96c	1.0608344
34	0x3da2d3ed	0.07950578
35	0x3fbc37d3	1.4704536
36	0x3f592016	0.84814584
37	0xbfb7a428	-1.4346972
38	0x3fad7ff5	1.3554674
39	0xbf70b094	-0.94019437
40	0x3df853e8	0.12125379
41	0xbdf40f56	-0.119169876
42	0xbd87b148	-0.066256106
43	0xbe4e5280	-0.20148659
44	0xbe1bf017	-0.15228306
45	0xbe11c269	-0.14234318
46	0xbea08abe	-0.31355852
47	0xbe709e31	-0.23497845
48	0x3dff2fcb	0.12460288
49	0x3ff35156	1.9009197
50	0xbe64b4b8	-0.22334564
51	0xbf24000d	-0.6406258
52	0x3fc9da1b	1.5769686
53	0xbe110a7f	-0.1416416
54	0x3f2d6b18	0.6774154
55	0x3f15b6da	0.58482134
56	0xbf78dcdf	-0.9721202
57	0xbf69b2df	-0.9128856
58	0x3f790cd5	0.97285205
59	0x3fa1ebac	1.2650046
60	0xbe61ee2b	-0.2206351
61	0x3f2e9f03	0.6821138
62	0x3ff653bc	1.9244304
63	0xbe82c2b8	-0.25539184

l2.bias f4 [8]
0	0xbe94e705	-0.29082504
1	0x3f161af8	0.586349
2	0xbf1f2e3b	-0.6217992
3	0x3f32077d	0.69542676
4	0x3f8cb52c	1.0992789
5	0xbd5d4600	-0.054021835
6	0xbed71e1a	-0.42015153
7	0x3e3057b6	0.17220959

l3.weight f4 [18, 8]
0	0x3e837a74	0.25679362
1	0x3ece7b51	0.40328458
2	0x3eb36d40	0.3504429
3	0xbf2ab1da	-0.6667763
4	0xbeed40c2	-0.4633847
5	0xbdeb45f0	-0.11487949
6	0x3e0e7ad7	0.13914047
7	0xc02d1cef	-2.704891
8	0x3d0f7269	0.03502122
9	0x3ed4accf	0.41538092
10	0x3ddcb19a	0.10776062
11	0xbfa710fc	-1.3052058
12	0xbde818d4	-0.113328606
13	0x3e63573a	0.22201243
14	0xbff3cd48	-1.9047022
15	0x3f1e25ad	0.6177624
16	0x3d6b9364	0.05751361
17	0xbf57fe46	-0.84372365
18	0x3eaceb72	0.3377338
19	0x3e7a5ad0	0.24448705
20	0x3e6204c7	0.22072135
21	0xbcf792f0	-0.030221432
22	0xbfa6d033	-1.3032287
23	0x3ecb8f52	0.39757782
24	0xbe0e0a9d	-0.13871236
25	0xbfa8783d	-1.3161694
26	0xbe49c3b7	-0.19703566
27	0xbfb3b177	-1.4038533
28	0x3f2960b6	0.66163194
29	0x3ad87100	0.0016513169
30	0x3c85ae61	0.016318502
31	0x3eecd427	0.4625561
32	0x3e86d7dc	0.26336563
33	0x3da58ede	0.080838904
34	0xbfd88b6f	-1.6917552
35	0x3eaf3574	0.3422047
36	0x3f413f24	0.7548697
37	0x3dec97e0	0.11552405
38	0xc018e958	-2.3892422
39	0x3e950644	0.29106343
40	0xbeb090f8	-0.34485602
41	0xbda9961d	-0.08280585
42	0xbf9761d9	-1.1826736
43	0x3f95525a	1.1665757
44	0xbf74cd86	-0.95626104
45	0x3ea5cd15	0.32383028
46	0xc029815b	-2.6485202
47	0xbe9c1038	-0.30481124
48	0x3e058ff3	0.13043194
49	0xbfe9bd45	-1.8260885
50	0xbdffef12	-0.12496771
51	0xbe525408	-0.20539868
52	0x3f38c4a9	0.7217508
53	0x3e8fefc7	0.28112623
54	0x3f019843	0.5062296
55	0xbfcbb4e9	-1.5914584
56	0x3e6c2f10	0.23064828
57	0xbf64c775	-0.8936685
58	0xbe17afe6	-0.14813194
59	0xbcaf5541	-0.021402957
60	0xbe946f74	-0.28991282
61	0xbe1a930b	-0.15095155
62	0x3eae641a	0.34060746
63	0xbcc3d9da	-0.02390759
64	0x3d1c5d19	0.038174722
65	0xbefec84c	-0.4976219
66	0x3eceb3ac	0.40371454
67	0xbfadb2e8	-1.3570223
68	0x3eebae8d	0.4603161
69	0x3e77b6ce	0.24190828
70	0x3eb2b03b	0.34900078
71	0xbfc67da6	-1.5507095
72	0x3dedd82f	0.116134994
73	0x3f940bd2	1.1566107
74	0xbf733485	-0.95002013
75	0xbfa3eec8	-1.2807245
76	0xbf62c6d0	-0.88584614
77	0x3d817fb0	0.063231826
78	0xbfa384f0	-1.2774944
79	0xbfd926b8	-1.6964941
80	0x3e8022ac	0.25026453
81	0xbf1b728f	-0.6072168
82	0xbf7c6120	-0.985857
83	0x3f5cf755	0.863149
84	0x3e02e1eb	0.12781493
85	0xbe1ea031	-0.15490796
86	0xbe3bc11f	-0.18335389
87	0xbfacb774	-1.3493485
88	0xbe9f4eb5	-0.31114736
89	0x3e0c601c	0.13708538
90	0x3ec3a26e	0.38209862
91	0x3f09a4e5	0.53767234
92	0xbfe816e2	-1.8131983
93	0xbe304aa0	-0.17215967
94	0xbf37f7f8	-0.71862745
95	0xbfea480f	-1.830324
96	0x3c68eecc	0.01421709
97	0x3ef8ca4d	0.48591843
98	0xc0075292	-2.1144147
99	0x3f2a47be	0.6651572
100	0xc0060ac2	-2.0944066
101	0x3e264762	0.16238168
102	0xbe6a481b	-0.22879069
103	0xc00fcd64	-2.246911
104	0x3d902372	0.07038011
105	0x3ed16cfd	0.40903464
106	0xbfd341ec	-1.6504493
107	0x3e5af75b	0.21383421
108	0xc0055e32	-2.0838742
109	0xbe8e2948	-0.2776587
110	0xbf9b0331	-1.2110349
111	0x3ebfab0a	0.3743518
112	0xbe7b739e	-0.24555823
113	0x3e9a362d	0.30119458
114	0x3f01513f	0.50514597
115	0xbfff8947	-1.9963769
116	0xbfb33acc	-1.4002318
117	0xbea8ca77	-0.32966968
118	0x3df3e1e3	0.11908319
119	0xbf4ef324	-0.80839753
120	0x3e465532	0.19368437
121	0x3cb0b388	0.021569982
122	0x3de1869d	0.110120036
123	0xbe49a919	-0.19693412
124	0xbfed624e	-1.8545625
125	0x3e0849e6	0.1330944
126	0xbe80044a	-0.25003272
127	0x3d461115	0.048356134
128	0xbe266628	-0.16249907
129	0xbf2ccd99	-0.6750122
130	0x3f333218	0.6999831
131	0xbfa414a4	-1.2818799
132	0xbf04ee3e	-0.5192603
133	0xbe388149	-0.18018068
134	0xbdb3e333	-0.08783569
135	0x3e33bc8b	0.17552392
136	0x3d3322b9	0.043734286
137	0xbf83d8b5	-1.0300509
138	0xc0042316	-2.0646415
139	0x3e62d019	0.22149695
140	0x3ebcc2d3	0.3686739
141	0x3eaee38d	0.34157982
142	0x3e744ae6	0.23856696
143	0x3e9136c0	0.28362083

l3.bias f4 [18]
0	0xbe91ee2f	-0.28502032
1	0x3e8a942d	0.27066174
2	0xbf42b23f	-0.7605323
3	0xbe0495fd	-0.12947841
4	0x3e6462c6	0.22303304
5	0xbd9f5832	-0.07780494
6	0x3dd32ac7	0.103108935
7	0xbee6c78e	-0.45074123
8	0x3e1c32fa	0.15253821
9	0x3f0b6a75	0.54459316
10	0x3ea16683	0.31523523
11	0xbec39b90	-0.38204622
12	0x3ecd4688	0.40092874
13	0xbeff496b	-0.498607
14	0xbed6f720	-0.41985416
15	0xbecbf093	-0.3983198
16	0xbe69cd7f	-0.22832297
17	0xbe3d4937	-0.1848496
