enData.pth (torch, 8655 bytes, 6 tensors)

l1.weight f4 [8, 122]
000000 1a 0a 1b 3f bd a1 9a bd 19 3a 78 bd c3 94 1e 3f
       0.6056229 -0.075503804 -0.06060228 0.6194574
000010 f1 17 8c be 75 96 8e be 6d f0 9a 3e 5f d2 10 3f
       -0.27362016 -0.27849165 0.30261555 0.56571
000020 e3 9b 4e be b5 2c 7d 3e fa 68 3e be d2 fe 1d bf
       -0.20176654 0.24724086 -0.18594733 -0.6171695
000030 da 18 12 be 43 22 12 bf b8 5f 3c 3d cd 96 0f bf
       -0.14267293 -0.5708353 0.045989722 -0.5608948
000040 5d 14 13 3f df 1a d2 be 60 9b dc be d7 ac 6c bd
       0.57452947 -0.41036126 -0.43087292 -0.05778202
000050 fa 2f 2e 3f f8 49 34 3f 63 11 22 3f 12 ed 80 bf
       0.68041956 0.7042537 0.6330778 -1.0072348
000060 8b f3 37 be 9f 10 c4 be f5 ee 4f bd 80 a0 3a be
       -0.17963998 -0.3829393 -0.050764997 -0.18225288
000070 d9 54 98 be e2 16 c7 bb 5a 6b fe be 98 80 a8 3f
       -0.29752234 -0.006075726 -0.49691278 1.3164244
000080 f3 d5 ab bd 18 cf 68 be 76 f3 90 be fa f7 40 bd
       -0.08390417 -0.2273525 -0.28310746 -0.04711149
000090 88 c1 ea 3d 36 8e ed bd bf e1 43 3f 88 f1 c5 be
       0.114626944 -0.1159939 0.76516336 -0.38660836
0000a0 49 3d b4 bd c4 45 11 3f 72 ee 26 3f d5 e2 cd 3e
       -0.08800752 0.5674708 0.6520759 0.40212122
0000b0 11 7f fa 3c 35 8c 20 bd 54 17 5e 3d e7 09 57 be
       0.030578168 -0.03919621 0.054221466 -0.20999871
0000c0 2f ec 32 3f 0c 43 7a be 83 c9 80 be 9e 06 74 bd
       0.6989164 -0.24439639 -0.2515374 -0.059576623
0000d0 2c b1 b2 3c b0 0d fe be 74 10 77 be 9a 49 fe be
       0.021812998 -0.49619818 -0.2412737 -0.4966553
0000e0 31 37 fe be 87 66 68 be b5 72 b8 be 14 cf 2b be
       -0.49651483 -0.22695361 -0.36025015 -0.16778213
0000f0 4e 1b da be fb 49 87 bc d9 98 9f bd 94 f8 ea 3d
       -0.42598957 -0.016514769 -0.07792825 0.11473194
000100 5a 25 1f 3f 1d 15 e1 3e 08 de 96 3d 4e 2c 2c be
       0.6216637 0.4396142 0.07366568 -0.16813776
000110 83 7d 94 be b7 f9 af 3e 83 e6 76 bd 00 31 08 bf
       -0.29002008 0.34370205 -0.060278427 -0.5319977
000120 f2 2d 17 bf 1e 98 12 3f 9c 66 36 be 6a 7a a3 3e
       -0.5905448 0.5726336 -0.1781258 0.31929332
000130 e6 32 cc be 6c 38 2f 3d 43 fa af 3e 75 fd e4 be
       -0.39882582 0.042778417 0.34370622 -0.44724622
000140 f5 d7 8a be 2b f2 94 be 14 30 97 be 70 34 46 3f
       -0.27117887 -0.2909101 -0.29528868 0.77423763
000150 b0 a6 0d bf 91 fb d1 bd b1 c2 db bd 0c 80 16 bf
       -0.5533247 -0.102530606 -0.10730494 -0.58789134
000160 0b cd ee bd 5c ec 7f bd 0e e3 2a be a9 8a 52 bd
       -0.116602026 -0.06248127 -0.16688177 -0.051401768
000170 f8 f1 00 be 2e 1e 67 3f ce 6a ad be 0d e0 f2 3c
       -0.12592304 0.90280426 -0.33870548 0.029647851
000180 aa b1 f6 bd be 47 16 bf f7 f2 20 bf a9 a2 43 3f
       -0.120456055 -0.5870322 -0.62870735 0.76420075
000190 cf 65 41 3f 8c 76 ba 3e ba d6 ab be 49 d2 c5 be
       0.7554597 0.3641857 -0.3356226 -0.38636997
0001a0 6e 91 16 3f 17 10 26 bf 61 d2 e5 be 31 11 8f be
       0.5881566 -0.648683 -0.4488707 -0.27942804
0001b0 df 48 74 3d 75 32 a8 3e 6b 79 a9 3e 5f 14 e0 3e
       0.059639808 0.32850996 0.33100447 0.43765542
0001c0 62 18 f0 be d3 f3 4e be 13 9e b9 be 06 97 93 3f
       -0.46893603 -0.20210199 -0.36253414 1.1530464
0001d0 32 38 fc be 94 c8 44 be 39 e8 b3 be 01 63 7e bf
       -0.49261624 -0.1921714 -0.3513811 -0.9936982
0001e0 e0 db 1b 3e 04 42 3a 3d ed eb 1c 3f d6 21 e3 3d
       0.15220594 0.045473114 0.61297494 0.11090438
0001f0 70 6e 17 3e a9 92 95 3e f6 b9 7d 3e 64 4d 17 3e
       0.14788222 0.29213455 0.2477797 0.14775616
000200 d1 ef b7 3e c2 3a 89 be a4 46 1d 3e 80 ac 87 3f
       0.35925153 -0.2680264 0.15358979 1.0599518
000210 71 7d 3a 3e 3c 0b 55 3f 59 fe 0d 3e 95 9c 91 be
       0.18211915 0.8322027 0.13866557 -0.28439775
000220 d0 0c 15 3f 26 5a 03 3f 40 f6 74 be 04 b2 38 3f
       0.58222675 0.5130943 -0.23922062 0.7214663
000230 29 96 04 3f d0 25 4b 3e c0 bb ca be 79 85 ca be
       0.51791626 0.19838643 -0.39596367 -0.39554957
000240 c4 d6 24 3f 7e 97 aa be 5b ac 8f 3d 79 7d 92 3c
       0.64390206 -0.33318704 0.07015296 0.017882096
000250 bf d4 ef 3e 76 c2 44 3e 60 e6 d8 3c ee ea 24 3f
       0.46842 0.19214806 0.026477039 0.64420974
000260 fd 7b ca be 69 5f bf be d2 3f 9f bd ed 7f 31 be
       -0.3954772 -0.3737748 -0.07775845 -0.17333956
000270 bf 76 57 be 69 d0 85 bd a9 c8 06 3f bc 26 3c 3e
       -0.21041392 -0.06533892 0.52649933 0.18374151
000280 c4 85 f9 bd a5 6b 14 be 52 64 3d be 09 ab 1e 3f
       -0.12183717 -0.14494188 -0.184953 0.6197973
000290 00 ab ca be 59 05 a6 3d 89 cd dd 3d ff 75 c3 3e
       -0.39583588 0.08106489 0.10830218 0.3817596
0002a0 68 06 2d 3e 0a df 43 be 6b 6e ca be d1 7a ac 3e
       0.16896975 -0.19128051 -0.39537367 0.3368745
0002b0 1b dd af 3e 9a 2b 5f bd 54 52 2d 3e db 62 ca be
       0.34348378 -0.05448494 0.16925937 -0.39528546
0002c0 51 34 b0 3e fb 43 ca be 04 63 ca be 2d f9 21 3f
       0.34414914 -0.3950499 -0.39528668 0.6327084
0002d0 a7 72 b1 be 62 b6 8c 3e ac dd 9e 3d 18 84 19 3e
       -0.34657785 0.27482897 0.07757124 0.14991796
0002e0 c7 63 29 bf 95 99 10 3f 59 62 15 3e 86 c9 32 3f
       -0.66167873 0.5648435 0.14588298 0.6983875
0002f0 f7 f3 e6 3d 74 8f 1f 3e b6 66 07 3f 37 19 e2 bd
       0.11277001 0.15582067 0.528911 -0.110399656
000300 c5 bb da 3e 15 be 0a bf c4 8c a5 3e 6b 02 9d be
       0.42721382 -0.5419629 0.32333958 -0.30665907
000310 37 08 a9 3e 0c af d8 3d b0 1c ff bb 2e 6b e1 3d
       0.3301408 0.105802625 -0.0077854022 0.11006771
000320 bd ba e1 bd 84 ec 89 3c 2d b2 cb bd f0 a2 6d be
       -0.110219456 0.016836412 -0.09946094 -0.23206687
000330 21 09 1a be a5 91 0f 3f 5a e4 0b 3f 48 0e b4 3d
       -0.15042545 0.5608161 0.5464531 0.087917864
000340 cc 71 35 be 62 01 ca 3e 4e 36 f0 bd b2 cd b3 bd
       -0.17719191 0.3945418 -0.11729108 -0.08779468
000350 56 ea 05 be 05 98 1e 3e 55 27 b2 bc 32 aa ef 3e
       -0.13077673 0.15487678 -0.02174727 0.46809536
000360 dc ae e9 3e b8 3a fe bd c1 50 2e 3f c0 b0 d1 3e
       0.4564122 -0.124135435 0.6809197 0.40955162
000370 a2 45 a9 bf 71 09 23 bf 97 a2 23 be e8 3a d3 bd
       -1.3224375 -0.6368628 -0.15979992 -0.1031397
000380 1f dc a8 3e 3f fa 99 3d 15 6c b1 be d1 9e 97 3f
       0.3298044 0.07518434 -0.34652773 1.1845342
000390 37 5f 05 3f 75 0c 81 3d 66 2f 26 3e de 9b 17 be
       0.5209841 0.06301204 0.16229019 -0.14805552
0003a0 25 c7 09 3d bf 18 0e be 6b 4c d8 bd e2 a6 3d 3f
       0.033637185 -0.13876627 -0.105614506 0.7408277
0003b0 0e 92 e8 3e 50 bb 48 3f dc ed 9b bd e2 6b b5 3e
       0.4542393 0.78410816 -0.076137275 0.3543387
0003c0 82 18 05 3e b4 76 88 3f 81 a1 7a 3e 82 c8 5f 3e
       0.1299763 1.0661225 0.24475671 0.21853831
0003d0 2f 48 68 3f e9 c9 b8 3e 2e 4f a8 3e 15 a3 1e 3f
       0.90735143 0.36091545 0.3287291 0.61967593
0003e0 2e 30 54 be 88 12 2e 3f ba ad e4 3e 3d d8 e9 3e
       -0.20721504 0.67997026 0.44663793 0.4567279
0003f0 51 c6 d0 3e 19 f4 6f 3f c2 98 27 3e 49 88 28 bd
       0.40776303 0.9373184 0.16366866 -0.041145597

l1.bias f4 [8]
000000 b8 42 fd 3e 0b f4 c5 3e a7 e2 bd 3f fa b0 1c 3f
       0.49464965 0.38662753 1.4834794 0.61207545
000010 34 fd 4b 3f 0c 70 19 3f d2 de b4 3e 6a 8b 81 3f
       0.7968323 0.59936595 0.35326248 1.0120671

l2.weight f4 [8, 8]
000000 8a ff 4a 3f b4 6b 2a bf e6 68 bb 3f cb ee 5c bf
       0.7929617 -0.6657059 1.4641387 -0.8630187
000010 3a 94 90 3e 32 ed 7c be 24 b9 90 bf fe f4 ad 3f
       0.28238088 -0.24699858 -1.13065 1.3590391
000020 9c ff bd 3e 3e 13 59 3f 40 d0 7e be 56 b0 37 be
       0.37109077 0.84794986 -0.24884129 -0.1793836
000030 63 c1 98 3e 41 5e 98 be 4f e9 70 be 2c 6f 63 bf
       0.29835042 -0.2975941 -0.235265 -0.8884151
000040 be 7c 0b 40 1c 98 6e bd d4 94 c3 3f c6 cc d0 3d
       2.1794887 -0.05825053 1.5279794 0.101953074
000050 30 60 ec 3f 98 02 a0 bf b6 21 8f 3f 8f 0e bf be
       1.8466854 -1.2500792 1.1182163 -0.37315795
000060 1e c3 80 3f c9 48 8a 3f 23 61 fc be 23 11 6a bd
       1.0059545 1.0803462 -0.4929286 -0.05714525
000070 4a 5c 29 3e 8c 67 2b bf b9 79 35 3f c8 ca 05 3f
       0.16539112 -0.66954875 0.7088886 0.52262545
000080 b4 13 c2 be 7b a8 5d 3f 42 17 69 3f 26 b1 98 3e
       -0.37905657 0.86585206 0.91051114 0.29822654
000090 08 c1 80 bf f5 43 c5 3e a5 ba 8c bf be 51 92 be
       -1.0058908 0.3852841 -1.0994459 -0.2857799
0000a0 e5 64 95 bf 3b b3 81 3f fa 0d aa 3f cd 03 04 40
       -1.1671416 1.0132822 1.3285515 2.062732
0000b0 4a c9 ab bf cd 14 ef 3f cc fd 01 3f d2 fb 17 bd
       -1.3420804 1.8678223 0.5077789 -0.03710539
0000c0 33 f4 9f 3f b3 ee b0 3f ca 54 9a 3f 21 42 0b 3f
       1.2496399 1.3822845 1.2057126 0.5439778
0000d0 31 b2 f4 bd d7 4b 81 3f 2e 6e 12 bf c2 7a ee bf
       -0.1194805 1.010127 -0.5719937 -1.8631213
0000e0 35 47 9f bf ff 92 ba bf a8 de b1 3f 50 e5 5e bc
       -1.2443606 -1.457611 1.3896074 -0.013604477
0000f0 e4 4d 19 3f 8e 31 9f 3f 58 30 b7 bf f9 bf df 3f
       0.59884477 1.2436998 -1.4311628 1.748046

l2.bias f4 [8]
000000 f0 64 00 3f 8a bc 89 3c 98 f9 2a 3f 0b ed 8b be
       0.5015402 0.016813535 0.667871 -0.27329287
000010 a4 e3 ce be 75 0a 36 3f ff 81 3c bd 2e a4 36 3f
       -0.4040805 0.71109706 -0.04602241 0.7134427

l3.weight f4 [18, 8]
000000 1c b2 06 c0 ce 01 b6 3e 08 be 21 3f 32 a0 7a bf
       -2.104621 0.35548252 0.6318059 -0.9790069
000010 5a 4d 04 c0 c1 ff cb bc f3 3d da be 98 45 83 be
       -2.0672212 -0.024902226 -0.42625389 -0.25639033
000020 17 23 d3 be 4c e7 1b bf 65 fb a9 be 8e ec c5 bf
       -0.4123771 -0.60899806 -0.3319961 -1.5462816
000030 49 34 d4 3e 2a 9e 06 3e 8c cb c9 3d a5 0c e4 bf
       0.4144614 0.13146272 0.098532766 -1.7816359
000040 a1 c7 d2 bc 83 42 cb bf 07 de 34 bf fd d2 54 c0
       -0.025729956 -1.5879673 -0.70651287 -3.3253777
000050 ff 7b 7a 3f 83 d1 86 be e6 09 75 be 06 5b a4 bc
       0.97845453 -0.2633172 -0.23929557 -0.020062935
000060 57 64 bf bf 4d e2 87 3e e1 87 01 c0 9c 18 75 3e
       -1.4952496 0.2653984 -2.0239184 0.23935169
000070 35 12 a6 bf 35 41 1d 3f c1 2a c8 bf 8a c6 44 3e
       -1.2974306 0.61427623 -1.5638047 0.19216362
000080 3e c3 25 3e 73 d9 a3 bf b1 87 22 3f e9 61 ff bd
       0.1618776 -1.2800735 0.634883 -0.12469847
000090 8e 87 32 c0 78 b6 f5 bf 88 10 42 bf 8f a0 8b bf
       -2.7895236 -1.919631 -0.75806475 -1.0908374
0000a0 e9 3c 4a bf c8 14 bd bf f5 1b 47 bf 6e 64 10 c0
       -0.7899919 -1.4771967 -0.77777034 -2.2561297
0000b0 3a a3 00 c0 6d 6e 5c 3f 9e 65 bf bd 32 77 c1 bf
       -2.0099626 0.86105996 -0.09345554 -1.51145
0000c0 7a ef 2e 3f b5 ee 61 bf 37 4b e0 3e ad ec 74 bf
       0.6833416 -0.88254863 0.43807384 -0.9567364
0000d0 9f 54 0b c0 04 f6 aa bf 2f 18 25 c0 83 50 64 3e
       -2.1770399 -1.3356328 -2.579601 0.22296338
0000e0 59 03 9d 3d 5b ef 96 3e 12 83 20 be fd 84 57 c0
       0.07666654 0.2947949 -0.15675 -3.367492
0000f0 78 10 00 c0 6e 1c a2 be f2 45 cb bf 84 a3 37 3f
       -2.0010052 -0.31662315 -1.5880721 0.7173388
000100 1a ca 7c 3d cd 94 22 bc 26 d9 1a c0 40 d5 b8 bf
       0.061716177 -0.009923172 -2.4195037 -1.4440079
000110 b6 82 0d 3f 08 da 6e 3e 2c 63 23 bf 6b 5c e4 3d
       0.55277574 0.2332536 -0.638232 0.1115044
000120 f2 0e 98 3d 5d 6b e2 3e ea 40 a7 3e f8 85 5e bf
       0.074247256 0.44222537 0.32666713 -0.8692317
000130 22 18 84 bf 5d 05 55 bf a2 33 ec 3c 98 75 1d c0
       -1.0319865 -0.8321131 0.028833214 -2.4603024
000140 3c 55 01 c0 f5 fa 2e 3f 59 1a 2f 3f e0 9e 8c 3e
       -2.0208273 0.6835168 0.6839958 0.27464962
000150 b7 2e 35 c0 6f 53 01 c0 5e aa 8d 3c aa 78 74 bf
       -2.8309762 -2.0207174 0.017293151 -0.9549662
000160 15 88 b7 3e 91 e8 d4 bf 72 45 d5 3d ac ce d0 bf
       0.3584601 -1.6633474 0.10413636 -1.6313071
000170 d3 82 a4 bf 52 80 2c bf 14 19 1a be 9d 6a d9 be
       -1.2852424 -0.673833 -0.15048629 -0.42464152
000180 74 2a c6 3e 90 c8 86 bd f2 dc 37 c0 ad c0 13 c0
       0.38704264 -0.06581223 -2.8728604 -2.308635
000190 2a 3b 8f bf 9e f7 0e 3e 9c ed 00 c0 da 2f 47 3f
       -1.118993 0.13961646 -2.0145025 0.7780739
0001a0 49 69 a2 bf a7 30 8c bf 60 56 4b be 89 eb 11 3f
       -1.268838 -1.0952348 -0.19857168 0.57000023
0001b0 2e 9e 85 bf c0 ed e7 3e d3 46 b1 bf ac ec fe bf
       -1.0438898 0.45298576 -1.3849739 -1.9915977
0001c0 3e b3 89 bf 0a 4c 7b bf 83 d8 65 3f 9d 3d 78 3f
       -1.0757825 -0.981629 0.89783496 0.96969014
0001d0 37 b9 94 bf 4b da 63 bf ef 7a 13 c0 a5 7e da bf
       -1.1619023 -0.89004964 -2.3043783 -1.7069899
0001e0 ac 0a 60 3f 08 2b 76 bd 32 4e fa bf 67 90 d3 3f
       0.87516284 -0.06009963 -1.9555113 1.6528443
0001f0 3c 05 83 bf 39 d2 b0 bf d8 da 98 bf e4 bd 55 3f
       -1.0235972 -1.3814155 -1.1941786 0.83492875
000200 92 f7 e2 bf 3b ef df bf 80 0c d2 bf 58 07 28 c0
       -1.7731802 -1.7494882 -1.6410065 -2.6254482
000210 de 59 48 3f f5 8e 57 3e 7c e7 10 3f a6 55 be be
       0.78262126 0.21050628 0.5660322 -0.3717472
000220 83 8f 4a bf 2a 91 29 bf 92 d1 13 c0 cb bf dd 3e
       -0.7912523 -0.6623713 -2.3096662 0.4331039
000230 6b c9 38 3e 22 ec 1d 3f 8f 98 60 be 6b 34 04 c0
       0.18045585 0.61688435 -0.21933196 -2.0656993

l3.bias f4 [18]
000000 9b 60 88 be 1b 9d 09 bf 18 ff 4d bf ba 5a 42 3f
       -0.26636204 -0.5375535 -0.8046737 0.7591969
000010 3d a2 d4 be a8 c5 94 3e 0c b9 8e be 8e 55 ca 3d
       -0.41530028 0.2905705 -0.27875555 0.098795995
000020 fc c6 1f bf 9a 9c dc 3c 8a dd d8 3d ca 1b cf bd
       -0.62413 0.026930142 0.1058913 -0.10112722
000030 a2 4e 89 3e 98 a2 21 3e b7 95 f6 3e e5 52 6d 3e
       0.26817805 0.15784681 0.48161098 0.23176153
000040 98 3e 8d be 75 af cb be
       -0.27586818 -0.397823
